braille_cnn_model.pth (torch, 213304 bytes, 8 tensors)

conv1.weight f4 [32, 1, 3, 3]
0	0xbde346ce	-0.11097489
1	0x3ea70abd	0.3262538
2	0x3e312076	0.17297539
3	0xbe043978	-0.12912548
4	0x3e6699d0	0.22519612
5	0x3dbd5f71	0.0924672
6	0x3e9fc214	0.31202757
7	0x3e9a4f3f	0.30138585
8	0x3cdfbae4	0.027310796
9	0xbe8e6b1e	-0.278161
10	0x3e900385	0.28127685
11	0xbe7f2a29	-0.24918427
12	0x3ea501ae	0.32227844
13	0xbe851f03	-0.26000223
14	0x3da49f8a	0.08038242
15	0x3dad6732	0.084669486
16	0x3ce2de67	0.02769394
17	0x3d304dcd	0.043042947
18	0xbeb72bb2	-0.35775524
19	0x3e9c5fc3	0.3054181
20	0x3e8a4f7d	0.2701377
21	0xbe40a0b8	-0.1881131
22	0xbf110f4c	-0.56663966
23	0x3e9c4654	0.30522406
24	0xbe87c415	-0.26516786
25	0x3eb26eae	0.34850067
26	0x3e9626b9	0.29326418
27	0xbeb579ea	-0.35444576
28	0xbe002afc	-0.12516397
29	0xbda920ae	-0.08258186
30	0x3e3bcc45	0.18339641
31	0xbef4e5c9	-0.47831562
32	0x3e8c840a	0.27444488
33	0xbdd97e95	-0.10619847
34	0xbe19468c	-0.14968318
35	0x3ea4c761	0.32183364
36	0x3ec09abf	0.37618062
37	0x3d85561d	0.065105654
38	0xbca48d9d	-0.020087058
39	0x3e13c6b5	0.1443127
40	0xbeb53155	-0.353892
41	0xbf0b56c6	-0.5442928
42	0x3df8acb7	0.12142318
43	0x3e955ac6	0.29170817
44	0x3c3e12b8	0.011601143
45	0xbe84b62b	-0.25920233
46	0xbe9cb2ea	-0.3060525
47	0xbe467b16	-0.19382891
48	0xbe501a78	-0.20322597
49	0xbe30fff6	-0.17285141
50	0x3e1c983b	0.15292446
51	0xbdabdec0	-0.083920956
52	0x3dd992c6	0.10623698
53	0xbe0fc398	-0.14039457
54	0xbe82a022	-0.25512797
55	0x3e8c5f9b	0.2741669
56	0xbe7392bd	-0.23786445
57	0x3e3bae02	0.18328097
58	0x3daccd40	0.08437586
59	0x3e57891b	0.21048395
60	0xbecd07f0	-0.40045118
61	0xbd444ffe	-0.04792785
62	0xbe5785c7	-0.21047126
63	0xbe9202a4	-0.2851764
64	0x3e88a8fb	0.26691422
65	0x3e844015	0.2583014
66	0xbedc08b7	-0.429754
67	0xbe14bcaa	-0.14525095
68	0x3c485a68	0.012228586
69	0xbe02d763	-0.12777476
70	0x3eac2b30	0.336267
71	0xbe004b8a	-0.12528816
72	0x3e403d0b	0.18773286
73	0x3ea8bf85	0.32958618
74	0xbf06cd6c	-0.526572
75	0xbd13f825	-0.03612532
76	0xbcea8fe6	-0.02863307
77	0xbd487439	-0.048938964
78	0x3e438f8b	0.19097726
79	0x3e461911	0.193455
80	0xbea74704	-0.32671368
81	0xbe9102f5	-0.2832257
82	0x3e8874e6	0.26651686
83	0x3d480c20	0.04883969
84	0x3e570b94	0.2100051
85	0xbeab2f58	-0.33434558
86	0x3eb2fa7b	0.34956726
87	0x3ea58f1d	0.3233575
88	0xbec40362	-0.3828383
89	0xbec27ef8	-0.37987494
90	0x3e83e72e	0.25762314
91	0xbec3ef4d	-0.3826851
92	0x3ec1dc20	0.37863255
93	0xbe3424c9	-0.17592157
94	0xbeac4c4e	-0.33651966
95	0xbe91f3a6	-0.28506202
96	0xbd6405b4	-0.0556695
97	0x3e0319f0	0.12802863
98	0x3c775e63	0.015098187
99	0x3dba8da4	0.09109047
100	0xbf503e5f	-0.8134517
101	0xbe56ac89	-0.20964254
102	0x3bf975e5	0.007612931
103	0x3c0345d7	0.008012257
104	0xbe46b89a	-0.19406357
105	0x3ea4c03d	0.32177916
106	0x3eccabef	0.39974925
107	0x3ec1d06e	0.37854332
108	0x3dd9eafc	0.10640523
109	0xbefbd4aa	-0.49185687
110	0xbe5cefdb	-0.21575873
111	0xbdb2d32e	-0.087316856
112	0xbdce5578	-0.100748956
113	0xbee3de76	-0.44505662
114	0x3e1431b7	0.1447209
115	0x3ebef95d	0.37299624
116	0x3e53d439	0.20686425
117	0x3e7ca16d	0.24670954
118	0x3e755618	0.23958623
119	0xbe50d9b8	-0.20395553
120	0x3e76c7c2	0.24099639
121	0x3e011304	0.1260491
122	0xbcc7f1e7	-0.02440734
123	0x3e14cc89	0.14531149
124	0x3e42cd9e	0.19023749
125	0xbcab4821	-0.020908417
126	0xbe0bc08b	-0.13647668
127	0xbf1babc6	-0.6080898
128	0xbe253966	-0.16135177
129	0x3e7208df	0.23636197
130	0x3eb229c1	0.3479748
131	0x3e122dc1	0.14275266
132	0x3e600002	0.21875003
133	0x3e6b7c8a	0.22996727
134	0xbe21be28	-0.15795195
135	0xbe42edf1	-0.1903608
136	0xbe56178a	-0.20907417
137	0xbe9848f8	-0.2974317
138	0x3e59f365	0.21284254
139	0xbf63e966	-0.8902801
140	0x3ee03045	0.43786827
141	0x3e815568	0.25260472
142	0x3f07d0dc	0.5305307
143	0x3edfb643	0.43693742
144	0x3e3ec886	0.18631181
145	0xbd5b0416	-0.053470694
146	0xbe8023df	-0.25027367
147	0xbe5b0873	-0.21389942
148	0x3d78958d	0.060689498
149	0x3e80b754	0.25139868
150	0xbe50e040	-0.20398045
151	0x3e4a34a7	0.19746648
152	0xbea0f909	-0.3144
153	0x3db265a6	0.08710794
154	0x3c424c80	0.011859059
155	0x3e010eb0	0.12603259
156	0x3d1ccce0	0.03828132
157	0x3dd1c39b	0.10242387
158	0xbe79f4f3	-0.24409847
159	0xbdd4d646	-0.10392432
160	0xbe0d2e8e	-0.1378729
161	0x3e5ad676	0.21370873
162	0x3e27914f	0.16364025
163	0xbf97d1bf	-1.1860884
164	0x3e7baacc	0.24576873
165	0x3d3b0cbe	0.04566645
166	0xbdee6424	-0.11640194
167	0x3cf9b81f	0.030483304
168	0x3de02e9d	0.10946391
169	0x3d3fbd29	0.046811257
170	0x3e1ce5b2	0.15321997
171	0xbebf554c	-0.37369764
172	0xbefdf7da	-0.49603158
173	0x3ea25d20	0.31711674
174	0x3ea9664c	0.3308586
175	0x3e7b5e16	0.2454761
176	0xbe67c0e3	-0.22632174
177	0xbe1c79af	-0.15280794
178	0x3e0283a1	0.12745525
179	0x3e9b1346	0.30288142
180	0xbe960442	-0.29300123
181	0x3d9e7b80	0.077383995
182	0x3e87ed1e	0.26548094
183	0x3ea5b561	0.32364944
184	0xbd1baedc	-0.038008556
185	0x3e1dc944	0.15408808
186	0xbf2a72fe	-0.66581714
187	0xbd84ef2d	-0.06490932
188	0x3da57c30	0.080803275
189	0x3de383f3	0.11109152
190	0xbde2d3ed	-0.11075578
191	0x3e806fd9	0.25085333
192	0x3ed25c46	0.41086024
193	0xbe3580fc	-0.17724985
194	0x3ec019a8	0.37519574
195	0xbf00f1a6	-0.50368726
196	0xbeefbca3	-0.46823606
197	0x3e814759	0.25249746
198	0x3e6b121e	0.2295613
199	0x3e133940	0.14377308
200	0x3c61fb9d	0.013792899
201	0x3ea77582	0.3270684
202	0x3e770b26	0.24125347
203	0x3d208f37	0.03919908
204	0x3e8c8881	0.27447894
205	0x3e33923a	0.1753625
206	0x3e259345	0.1616946
207	0xbd3ef15c	-0.046616897
208	0xbee6acc2	-0.4505368
209	0x3e6462af	0.2230327
210	0xbeafc0a3	-0.34326658
211	0x3e1535d8	0.14571321
212	0x3eae658f	0.34061858
213	0x3e02332f	0.12714837
214	0xbdb3a9b7	-0.08772605
215	0x3dc3c27a	0.09558578
216	0x3cb2fce3	0.021849101
217	0x3e7ba3ab	0.24574153
218	0xbe67c38b	-0.22633187
219	0x3e98031f	0.2968988
220	0xbf036977	-0.513328
221	0x3d706247	0.058687475
222	0x3ea0d785	0.31414428
223	0xbeb0ab3c	-0.3450564
224	0x3e9e0b69	0.3086808
225	0x3e8a194b	0.26972422
226	0xbd881d28	-0.06646186
227	0x3d6a46a4	0.057196274
228	0xbf1189f5	-0.5685113
229	0xbe8b256f	-0.27176997
230	0x3e09c09f	0.13452385
231	0x3e784475	0.24244864
232	0x3cb21973	0.02174065
233	0xbdb766f1	-0.089551814
234	0xbebdb708	-0.37053704
235	0x3c8e0512	0.017336402
236	0x3eae2d84	0.340191
237	0x3e7eb9a8	0.2487551
238	0x3d115532	0.03548164
239	0xbeb35c28	-0.35031247
240	0x3e44473f	0.19167803
241	0x3ea19213	0.31556758
242	0xbf249ecc	-0.64304805
243	0x3e9a43e1	0.30129912
244	0xbeb87363	-0.36025533
245	0x3dca7a6c	0.09886631
246	0x3e5a9c45	0.21348675
247	0x3e3b6aeb	0.18302505
248	0x3ee20b6f	0.44149348
249	0xbe630a4b	-0.22171895
250	0xbefe8d81	-0.49717334
251	0xbe9cdf87	-0.30639288
252	0x3cd108e7	0.02551694
253	0x3d87a1f7	0.06622689
254	0xbd672400	-0.056430817
255	0x3e935cf3	0.28781852

conv1.bias f4 [32]
0	0x3e67d982	0.22641566
1	0xbc85097d	-0.016239876
2	0xbd72d371	-0.059283677
3	0x3e9c3c27	0.30514643
4	0xbd81fc33	-0.06346931
5	0xbd91ca26	-0.07118635
6	0x3e8483f1	0.25881913
7	0x3e0b7019	0.1361698
8	0x3cbaf479	0.022821652
9	0x3ddde6ad	0.108350135
10	0x3e8dbfe9	0.27685478
11	0x3dafa664	0.08576658
12	0x3ec29dc9	0.38011006
13	0x3e588a51	0.21146514
14	0xbd58d476	-0.052936994
15	0xbe525bbe	-0.2054281
16	0xbe8b632e	-0.27224106
17	0xbe9f11c8	-0.31068254
18	0x3eb04512	0.34427696
19	0xbd168d94	-0.036756113
20	0x3e1be9ef	0.15225957
21	0xbe03f37c	-0.1288585
22	0x3e9695cc	0.2941116
23	0x3d133880	0.035942554
24	0xbddd840f	-0.10816204
25	0x3e1cb57b	0.15303604
26	0x3dfb1901	0.122606285
27	0x3dd22221	0.10260416
28	0x3db79470	0.08963859
29	0x3ec9c520	0.39408207
30	0xbdb70a10	-0.08937466
31	0xbe64d450	-0.22346616

conv2.weight f4 [64, 32, 3, 3]
0	0xba2e83f3	-0.0006657235
1	0xbcb4f728	-0.02209051
2	0xbcc71edb	-0.024306705
3	0x3cd499a4	0.025952168
4	0x3c090b47	0.008364505
5	0xbd2ad56f	-0.041707452
6	0xbcf8ba99	-0.030362414
7	0x3d0047ab	0.031318348
8	0x3cb0c1d6	0.021576803
9	0xbc8a1952	-0.016857777
10	0xbd4eafb6	-0.05046054
11	0xbc38d783	-0.011281851
12	0xbd2927c2	-0.04129768
13	0xbd4aa89b	-0.0494772
14	0x3cf3b691	0.02975014
15	0xbc0d50b4	-0.008625198
16	0xbd1e8759	-0.038703296
17	0xbca8bb41	-0.020597102
18	0xbd31dd9c	-0.043424234
19	0xbd82212a	-0.06353982
20	0x3cff36d5	0.031154076
21	0xbbd80048	-0.0065918304
22	0x3ca8976f	0.020580022
23	0xbd3627a6	-0.044471405
24	0xbc5b1f50	-0.013374165
25	0xbcaedecb	-0.02134647
26	0xbcaed969	-0.021343904
27	0xbcba984a	-0.022777695
28	0xbd0c3b44	-0.034236208
29	0xbd80af49	-0.06283433
30	0x3d704c57	0.058666553
31	0xbd3e43cc	-0.046451375
32	0x3cd7fc5c	0.026365452
33	0x3d0cf1d9	0.03441033
34	0x3d1c8a5c	0.038217887
35	0x3cfac318	0.030610606
36	0xba4dee95	-0.0007855681
37	0xbd3bee1c	-0.045881376
38	0x3bbba57c	0.0057265144
39	0xbd0323f3	-0.032016706
40	0xbcdf29a8	-0.027241543
41	0xbc9f2f62	-0.019431774
42	0xba29c9db	-0.0006476917
43	0xbd2a28aa	-0.041542687
44	0x3d979224	0.07400921
45	0xbcb9af1f	-0.022666512
46	0xbc97b5e6	-0.018519353
47	0x3abc524e	0.001436779
48	0x3d69df76	0.057097875
49	0xbd49f61c	-0.049306974
50	0xbd2e8382	-0.042605884
51	0xbd57d26e	-0.052690916
52	0xba40ba24	-0.0007351956
53	0xbd128be6	-0.03577795
54	0xbd213244	-0.039354578
55	0xbd126186	-0.035737537
56	0xbd2c9c34	-0.042141154
57	0x3d232992	0.039834566
58	0x3ae903d1	0.0017777627
59	0xbd2c6d0b	-0.04209618
60	0xbc3683e1	-0.011139841
61	0xbc2d2c9d	-0.010569719
62	0xbd077e9d	-0.033079732
63	0x3d53a8bd	0.051674593
64	0x3d2359bb	0.039880496
65	0x3cc04a82	0.023473028
66	0x3cbb0122	0.022827689
67	0xbcf7f18f	-0.030266551
68	0x3b26f70b	0.002547684
69	0x3cfce4b2	0.03087077
70	0xbd14611e	-0.03622543
71	0xbd80d9f8	-0.06291574
72	0xbd4254af	-0.04744404
73	0xbce11ee7	-0.027480556
74	0x3c5ef71c	0.01360872
75	0xbce77dd7	-0.028258247
76	0x3cb1f017	0.02172093
77	0xbbb6634e	-0.0055660373
78	0x3d0aabcf	0.033855256
79	0xbcd34041	-0.025787475
80	0x3c1e7ad9	0.009672844
81	0xbb345ac6	-0.0027519925
82	0xbd93bac2	-0.072133556
83	0xbd01056e	-0.03149932
84	0xbd3e7561	-0.04649866
85	0x3c1e059e	0.009644894
86	0xbd133af8	-0.03594491
87	0xb9e54694	-0.00043730868
88	0x3cee8cde	0.029119905
89	0xbd3bebf0	-0.045879304
90	0x3cf0ab8a	0.029378671
91	0xbbbc4d57	-0.0057465243
92	0x3d0f2637	0.034948554
93	0x3d1345fa	0.035955407
94	0x3b724227	0.00369657
95	0xbc6326bc	-0.013864215
96	0xbcb9cdda	-0.022681165
97	0xbc299c0a	-0.010352144
98	0x3d2026b9	0.03909943
99	0xbd080736	-0.033210002
100	0x3d2e791f	0.04259598
101	0x3c60d814	0.013723392
102	0xbd43210b	-0.047638934
103	0xbd6f22d6	-0.05838283
104	0xbc0e3df8	-0.008681767
105	0xbd3e230f	-0.046420153
106	0xbd977589	-0.07395465
107	0x3c8dd890	0.01731518
108	0x3c8b8a63	0.017033761
109	0x3cf2f4bb	0.029657712
110	0x3d0cf665	0.034414668
111	0xbc8b0113	-0.016968286
112	0xbd364459	-0.044498775
113	0x3cbd6bbf	0.023122666
114	0x3d4e0f71	0.050307695
115	0x3d02edd6	0.0319651
116	0x3d142c81	0.036175255
117	0xbcb1be1e	-0.0216971
118	0xbcd0d21d	-0.025490815
119	0xbd55d5e1	-0.052205924
120	0xbba014e7	-0.0048853043
121	0xbc08827f	-0.008331894
122	0xbd728081	-0.059204582
123	0xbd4043f9	-0.046939824
124	0xbcc7b85f	-0.024379907
125	0xbc849b5f	-0.016187368
126	0x3c8369e3	0.016041702
127	0xbd60dd74	-0.054898694
128	0x3c6765b5	0.01412337
129	0x3d551345	0.05202033
130	0x3c5caeb3	0.013469386
131	0xbca7d76c	-0.020488463
132	0x3d0c183a	0.03420279
133	0xbd85aaae	-0.06526695
134	0x3c16c5f4	0.009202469
135	0xba25c35d	-0.0006323362
136	0x3d3c7ad8	0.04601559
137	0xbd8f9542	-0.070108905
138	0x3c2c2011	0.010505692
139	0x3b1cb974	0.002391425
140	0xbd7c577d	-0.061606873
141	0x3c86d896	0.016460698
142	0xbc6d5686	-0.014485961
143	0x3d32abe5	0.043620963
144	0xbc43fbd2	-0.011961894
145	0xbd0cb7c5	-0.034354944
146	0x3d5ed4a9	0.054402027
147	0x3cbfb5f4	0.023402192
148	0xbd6ff5df	-0.05858409
149	0xbd2111aa	-0.039323486
150	0xbd2c5689	-0.042074714
151	0xbd5fded0	-0.05465585
152	0xbc6a4aeb	-0.014300088
153	0x3b2f4ff3	0.0026750534
154	0x3c917d37	0.017759902
155	0x3d6654fe	0.0562334
156	0xbcbd433d	-0.02310335
157	0xbc8f766b	-0.01751252
158	0x3c4bfb83	0.012450102
159	0x3b482915	0.0030542065
160	0x3c1884e8	0.009309031
161	0xbbb5a248	-0.005543027
162	0x3d23a370	0.039950788
163	0xbd3c43f0	-0.045963228
164	0xbd870e74	-0.065945536
165	0xbb9e3403	-0.0048279776
166	0xbd67ffb5	-0.056640346
167	0x3d011a41	0.03151918
168	0xbd27b600	-0.040945053
169	0xbd11b79d	-0.035575498
170	0xbd69d706	-0.057089828
171	0x3d3a7d04	0.04552938
172	0xbd5399a9	-0.051660214
173	0x3c8821e1	0.016617717
174	0xbd6e5958	-0.058190674
175	0xbcc4cae6	-0.02402253
176	0xbd91d846	-0.07121329
177	0x3cddac1b	0.027059605
178	0xbcbcae22	-0.023032252
179	0xbd7ef7ee	-0.062248163
180	0x3d27d8d1	0.040978257
181	0xbc93ed2b	-0.018057426
182	0x3bfc4efb	0.007699845
183	0x3ccf5894	0.025310792
184	0xbd141734	-0.03615494
185	0x3d2b4d3d	0.041821707
186	0x3d24ad13	0.04020412
187	0xbd8ecac0	-0.06972265
188	0xbd251675	-0.04030462
189	0xbd4aff4c	-0.049559876
190	0xbcc4637c	-0.02397322
191	0x3d0182a1	0.031618718
192	0xbd100319	-0.035159204
193	0xbd22dcde	-0.039761417
194	0xbd1befd1	-0.038070504
195	0x3d4dc59d	0.050237287
196	0xbd4fc3be	-0.050723784
197	0xbcc1c8f8	-0.0236554
198	0xbd214c68	-0.039379507
199	0xbd165775	-0.0367045
200	0x3b919696	0.004443
201	0x3be95e37	0.007121827
202	0x3cc6626e	0.024216857
203	0xbd0926b1	-0.033484165
204	0xbd4ea5c6	-0.050451063
205	0xbd1c29e7	-0.0381259
206	0xbd8ac342	-0.06775524
207	0xbd1a0857	-0.03760561
208	0xbd878932	-0.06617965
209	0x3d289581	0.041158203
210	0xbd19e648	-0.03757313
211	0x3d1351ff	0.03596687
212	0xbd81efb5	-0.063445486
213	0x3c8d363f	0.01723778
214	0xbd95dc32	-0.073173895
215	0xbd139f85	-0.0360408
216	0xbc70d7d3	-0.014699894
217	0xbd27e43b	-0.040989142
218	0x3b63c90b	0.0034757282
219	0x3cdbe15a	0.026840854
220	0xbbc5ffae	-0.0060424423
221	0xbc1cd136	-0.009571364
222	0x3c2154a2	0.009846838
223	0xbd32cc63	-0.04365195
224	0xbbf09182	-0.0073415646
225	0xbc4434c5	-0.011975472
226	0xbd7d59a0	-0.06185305
227	0x3958992e	0.00020656429
228	0x3d2edb52	0.04268963
229	0x3d17420d	0.036928225
230	0xbc44bb59	-0.012007558
231	0x3b63f94b	0.0034786041
232	0xbd17ae04	-0.03703119
233	0xbcd57e89	-0.026061313
234	0x3d125bda	0.035732128
235	0x3cd9d1cc	0.026589297
236	0xbc103af4	-0.008803118
237	0xbd4ad4c6	-0.049519323
238	0x3d288eea	0.04115192
239	0xbd93f97b	-0.07225319
240	0xbbac0d27	-0.0052505913
241	0xbd061707	-0.032736804
242	0xbd7daf8d	-0.061934996
243	0x3d06ee07	0.032941844
244	0x3cc0590d	0.023479963
245	0x3d28d891	0.04122216
246	0xbd109b55	-0.035304386
247	0xbd175540	-0.036946535
248	0x3cc5c584	0.024142034
249	0x3c9e2269	0.019303517
250	0x3abc83c0	0.0014382526
251	0x3d2d540e	0.04231649
252	0xbd18f2de	-0.03734099
253	0x3d3ba545	0.04581191
254	0xbb6907bc	-0.0035557589
255	0x3c19d57d	0.0093892785

conv2.bias f4 [64]
0	0xbc884f78	-0.016639456
1	0x3d125621	0.03572667
2	0x3d31e766	0.04343357
3	0xbdc2332f	-0.09482419
4	0x3c2086fe	0.00979781
5	0x3c7405a1	0.01489392
6	0xbbbbb7a8	-0.0057286806
7	0x3c9e1282	0.019295935
8	0x3d87aa4e	0.0662428
9	0xbd0af594	-0.033925608
10	0x3b265b95	0.0025384177
11	0xbc322461	-0.010872931
12	0x3cc2f9a1	0.023800673
13	0xbd0beada	-0.03415952
14	0x3aca35e0	0.0015427433
15	0xbc7b0c80	-0.015322804
16	0xbd2e08b7	-0.04248878
17	0xbd057254	-0.032579735
18	0x3d45a9a0	0.04825747
19	0x3ca34fea	0.019935567
20	0xbd56e698	-0.052466005
21	0xbbeea8fe	-0.007283329
22	0xbd70ca9c	-0.058786973
23	0xbd884579	-0.06653876
24	0xbdd33c1c	-0.10314199
25	0x3cab1b1a	0.020886946
26	0x3cc4fe0a	0.024046917
27	0xbd5a998d	-0.053369094
28	0xbd264442	-0.04059244
29	0xbd42d298	-0.04756412
30	0x3d0d2863	0.034462344
31	0x3c661f5f	0.014045565
32	0xbcaab51c	-0.020838313
33	0xbb4fc0b8	-0.0031700563
34	0xbd4612bc	-0.04835771
35	0x3c8b2bbe	0.016988631
36	0xbd65fe57	-0.05615076
37	0x3d478e7e	0.048719876
38	0x3ae8bdb0	0.0017756727
39	0x3cf02d94	0.029318608
40	0xbd174faf	-0.036941227
41	0x3d7a5998	0.0611206
42	0xbdb02dc3	-0.08602478
43	0xbcd3bfcb	-0.02584829
44	0x3d82757a	0.06370063
45	0xbd91f1e2	-0.071262136
46	0x3cd04d06	0.025427353
47	0x3c901225	0.017586777
48	0xbcd4aa6b	-0.025960168
49	0x3ca3c522	0.019991461
50	0xbd837c5f	-0.06420206
51	0x3d18314a	0.03715638
52	0x3d05116a	0.03248731
53	0x3c38e501	0.011285068
54	0x3d0e11ff	0.03468513
55	0x3cbc072a	0.022952635
56	0x3d2499a7	0.040185597
57	0xbc7f0ae5	-0.015566562
58	0xbd483930	-0.048882663
59	0x3d3d490e	0.04621225
60	0xbd6ffd85	-0.058591384
61	0xbcef6a69	-0.029225545
62	0x3c23f4b2	0.01000707
63	0x3cbb910e	0.022896316

fc1.weight f4 [128, 256]
0	0x3d6b993e	0.05751919
1	0xbd7a3d46	-0.06109359
2	0x3c711458	0.014714323
3	0xbd1281e8	-0.03576842
4	0xbd594c14	-0.05305107
5	0xbc4f5cbc	-0.012656387
6	0x3ce6be5d	0.028166944
7	0xbd583bea	-0.052791514
8	0xbc99e74a	-0.018787045
9	0x3c85f093	0.016350066
10	0x3ad75962	0.0016429836
11	0xbd56e321	-0.0524627
12	0xbd8cfd4e	-0.068842515
13	0x3d1e37e1	0.03862751
14	0x3cfab25f	0.030602632
15	0xbd1291f3	-0.03578372
16	0xbd067ed1	-0.032835785
17	0x3c984106	0.018585693
18	0xbca5d42b	-0.020242771
19	0xbda03565	-0.07822684
20	0x3ceee145	0.029160151
21	0x3c751a13	0.01495983
22	0xbd5b6106	-0.053559326
23	0xbcb255ed	-0.021769488
24	0x3d0ead6a	0.03483335
25	0xbd669f85	-0.056304473
26	0xbce7d301	-0.028298857
27	0xbd42a63e	-0.047521822
28	0x3c990a48	0.01868166
29	0xbd47d4ce	-0.04878693
30	0x3c55c060	0.013046354
31	0x3c8c6678	0.017138705
32	0x3cf09225	0.029366562
33	0xbbe309f4	-0.0069286767
34	0x3d3f2cda	0.046673633
35	0x3d10c7de	0.03534686
36	0xbd2c0b75	-0.042003114
37	0x3b8f8e41	0.0043809717
38	0x3ca9ee69	0.020743566
39	0x3d7430cb	0.059616845
40	0x3c76d9a6	0.01506654
41	0x3d130e4f	0.035902318
42	0xbcd770e2	-0.026298944
43	0xbd2dc074	-0.042419866
44	0xbcfed79c	-0.03110867
45	0x3c894194	0.016754903
46	0xbc82bd27	-0.015959335
47	0x3ceeb8b2	0.029140804
48	0xbd7e8841	-0.06214166
49	0x3c751502	0.014958622
50	0xbb849f7d	-0.004047333
51	0xbd084f52	-0.03327877
52	0xbd2d828a	-0.04236082
53	0xbd813c07	-0.063102774
54	0xbd4ad52a	-0.049519695
55	0xbdb1b016	-0.08676164
56	0x3d30641c	0.04306422
57	0xbd58d13a	-0.05293391
58	0x3c7b0b60	0.015322536
59	0x3ce05f5c	0.02738922
60	0xbd211eca	-0.039336003
61	0xbbd255f2	-0.006418937
62	0xbd1a6592	-0.03769452
63	0xbc9b4ded	-0.018958056
64	0xbb318b01	-0.002709091
65	0xbc864403	-0.016389852
66	0x3cee71a1	0.029106917
67	0xbd414f75	-0.047194917
68	0x3c252c6c	0.010081392
69	0xbd8e136b	-0.069372974
70	0x3bcc630e	0.006237394
71	0xbd358480	-0.044315815
72	0xbd369666	-0.044577025
73	0xbc11c30a	-0.008896599
74	0x3d65cbf2	0.0561027
75	0x3d449d06	0.04800131
76	0x3cc0061f	0.023440419
77	0x3c85833b	0.016297927
78	0xbd2809a7	-0.04102483
79	0x3beabc85	0.0071635866
80	0x3cdaca64	0.026707835
81	0xbd1c0fa0	-0.03810084
82	0x3d18a594	0.037267283
83	0xbd38e080	-0.045135975
84	0xbd18fd21	-0.037350778
85	0xbd545132	-0.051835246
86	0xbd5d21dc	-0.05398737
87	0xbbfba9cb	-0.007680153
88	0xbc1b9f3d	-0.009498415
89	0x3c3dc26c	0.011581998
90	0x3cab8c5a	0.020940948
91	0xbd72efab	-0.059310596
92	0x3d6b2466	0.05740776
93	0x3d7ba1c4	0.06143357
94	0x3d3d68d6	0.046242557
95	0xbcc4c114	-0.024017848
96	0xbd0c844b	-0.034305852
97	0xbc4ccd0c	-0.012500059
98	0x3c88497a	0.016636599
99	0xbd6a5784	-0.057212368
100	0xbcb2c590	-0.02182272
101	0x3d7f8486	0.062382244
102	0xbc000110	-0.007812753
103	0xbd367430	-0.0445444
104	0x3ce6f5a5	0.028193304
105	0x3c97f98f	0.018551616
106	0x3beafca7	0.007171232
107	0x3bc839a8	0.006110389
108	0x3ae79096	0.0017666991
109	0x3ce84088	0.028351083
110	0xbcb5d8c1	-0.022198083
111	0xbda046ce	-0.07826005
112	0xbd24bf00	-0.040221214
113	0x3cb8a6b0	0.02254042
114	0xbd1f62ea	-0.03891269
115	0x3d070085	0.03295948
116	0xbd408af3	-0.047007512
117	0x3cffce25	0.031226227
118	0xbd4a4cd3	-0.04938967
119	0x3d103149	0.035203252
120	0xbcc6ebdd	-0.02428239
121	0x3d18ff19	0.037352655
122	0xbc440fed	-0.011966688
123	0xbd0121e4	-0.03152646
124	0xbd2371a9	-0.039903317
125	0xbc944d43	-0.018103248
126	0xbcd0f999	-0.025509642
127	0xbd02e153	-0.031953167
128	0x3d44b9c9	0.04802874
129	0x3cf1096e	0.029423442
130	0xbc9076a3	-0.017634695
131	0x3a713510	0.00092013273
132	0x3d3a1f0c	0.045439765
133	0x3d4760b8	0.048676223
134	0x3ce9b0a4	0.028526612
135	0x3d67b718	0.056571096
136	0x3cea1ec0	0.028579116
137	0xbc499b99	-0.012305164
138	0x3d26b608	0.040700942
139	0x3d0e4bb2	0.034740157
140	0x3d01115c	0.031510696
141	0xbd49c79d	-0.04926263
142	0xbbc6ef8d	-0.006071037
143	0xbd6387d7	-0.05554947
144	0xbd500b66	-0.05079212
145	0x3c561468	0.013066389
146	0xbc7f66d8	-0.015588485
147	0x3d4d7f28	0.050170094
148	0x3bc2b69b	0.0059421784
149	0x3cb065f6	0.021532994
150	0xbc90c8cd	-0.017673874
151	0xbd1a4112	-0.037659712
152	0x3cb72eb5	0.022361139
153	0xbcdfdd44	-0.027327187
154	0x3bedc94e	0.0072566634
155	0xbba0582b	-0.004893323
156	0xbcbc77d4	-0.023006357
157	0xbd9553fb	-0.07291409
158	0xbc5fbda7	-0.0136560565
159	0x3bfe5e6f	0.007762722
160	0x3cfc1fec	0.03077694
161	0xbc8079ec	-0.015683137
162	0xbcd56658	-0.026049778
163	0xbce3b0f4	-0.027794339
164	0xbd95c9c3	-0.073138736
165	0x3cae3a1c	0.021267943
166	0xbd8e6608	-0.06953055
167	0xbda90c3d	-0.082542874
168	0xbd7c8729	-0.061652336
169	0x3c469f66	0.0121229645
170	0x3a8a8606	0.0010568507
171	0x3c210b0b	0.009829293
172	0xba83bd75	-0.001005097
173	0x3d12cebd	0.035841692
174	0xbc20f1d9	-0.009823286
175	0xbd9821f0	-0.07428348
176	0x3c957ef5	0.018249014
177	0xbbb073aa	-0.005384882
178	0x3ce268b9	0.027637826
179	0xbda24ed6	-0.07925193
180	0xbd58d926	-0.052941464
181	0xbb901ddb	-0.0043980903
182	0x3c23f399	0.010006809
183	0x3cd0d4da	0.02549212
184	0x3c396658	0.011315905
185	0xbd196652	-0.037451096
186	0xbd0bced4	-0.034132794
187	0xbbd96dd0	-0.006635405
188	0xbbc93573	-0.006140405
189	0xbcb2bb24	-0.021817751
190	0x3cbb5eab	0.02287229
191	0x3ba84ed4	0.00513635
192	0x3c955896	0.018230718
193	0xbd97fc89	-0.07421214
194	0xbd01ed6f	-0.031720575
195	0xbd6d0b0a	-0.057871856
196	0x3d5621c7	0.052278306
197	0xbd198575	-0.03748079
198	0x3ae8cbf0	0.0017760973
199	0x3c60e557	0.013726554
200	0x3d0fd38c	0.035113856
201	0xbc768d22	-0.015048297
202	0x3d65bfe2	0.056091197
203	0xbce80454	-0.028322376
204	0x3c5426a0	0.012948662
205	0xbd3674ca	-0.044544972
206	0x3ce69fb0	0.028152317
207	0xbb454c60	-0.0030105338
208	0xbcbf7d27	-0.023375107
209	0xbd010f30	-0.031508625
210	0x3c057e4c	0.008147787
211	0xbd3bcb85	-0.04584839
212	0x3cf02530	0.029314607
213	0xbd704556	-0.058659874
214	0x3c526f88	0.012843974
215	0x3d1fc5eb	0.03900711
216	0xbcf75538	-0.030192003
217	0x3b28564e	0.0025686207
218	0x3cce1423	0.025156086
219	0xbd831b4e	-0.06401692
220	0x3d19c528	0.03754154
221	0x3cbcd7e8	0.02305217
222	0x3c905f0c	0.017623447
223	0x3b55ab80	0.0032603443
224	0xbc00f212	-0.007870214
225	0x3d10c7ed	0.035346914
226	0x3cc704cd	0.024294281
227	0x3d0211e0	0.03175533
228	0xbc6d6ee8	-0.014491774
229	0x3cfa8aa4	0.030583687
230	0x3ce92fa0	0.028465092
231	0x3cade148	0.021225587
232	0x3cceb7d0	0.025234133
233	0x3d2b5bda	0.041835643
234	0x3d145a8a	0.036219157
235	0xbd59fa5e	-0.053217284
236	0x3ce6e2e4	0.028184362
237	0xbcbc8494	-0.023012437
238	0xbcad0670	-0.021121234
239	0xbd37d682	-0.044882305
240	0x3d150cb4	0.036389068
241	0x3c0b8a7f	0.008516907
242	0xbd2b12d4	-0.041766003
243	0x3c11743c	0.00887781
244	0xbc498288	-0.0122991875
245	0x3b3bba20	0.0028644875
246	0x3d1d632e	0.038424663
247	0xbd1c37b6	-0.038139068
248	0xbd3e26cd	-0.046423722
249	0xbd231d98	-0.039823145
250	0x3d1519a1	0.036401395
251	0xbd840ebc	-0.06448123
252	0x3c10ae26	0.008830583
253	0xbcb29935	-0.02180157
254	0x3d0487aa	0.03235594
255	0x3d1e93e9	0.038715277

fc1.bias f4 [128]
0	0x3bb3a6f3	0.0054825484
1	0x3cdbdfba	0.02684008
2	0x3daec26b	0.08533176
3	0xbd393fb5	-0.04522677
4	0x3a7ae4c3	0.00095708313
5	0xbc5413b8	-0.012944154
6	0xbd3532c7	-0.04423788
7	0x3d6c3dbf	0.057676073
8	0x3d084dbf	0.03327727
9	0xbd8214cd	-0.06351624
10	0x3c868adf	0.01642364
11	0xbb730b9a	-0.0037085772
12	0x3d415afb	0.047205906
13	0xbd07f31c	-0.03319083
14	0x3d743e19	0.059629533
15	0xbd595f5e	-0.053069465
16	0x3cba2447	0.022722377
17	0x3c7bd631	0.015370891
18	0xbc10311f	-0.008800774
19	0x3d3a8066	0.045532607
20	0xbd819c43	-0.06328633
21	0xbd4a9643	-0.049459707
22	0x3d26f248	0.0407584
23	0xbc79b625	-0.015241181
24	0xbd19f779	-0.037589524
25	0x3d9128b9	0.07087845
26	0xbd46e462	-0.048557647
27	0x3b088148	0.002082901
28	0xbd8826e3	-0.06648042
29	0x3cd113a5	0.025522063
30	0xbd5dafc6	-0.05412271
31	0x3c7eae94	0.015544552
32	0x3c8e3671	0.017359944
33	0xbca477e4	-0.0200767
34	0xbc4cbf02	-0.012496712
35	0xbd27faa6	-0.04101052
36	0xbd650b6c	-0.055919096
37	0xbd1d44e1	-0.038395766
38	0xbd09e3f4	-0.03366466
39	0x3b649139	0.0034876599
40	0xbd6ebf23	-0.05828775
41	0x3d422e65	0.047407527
42	0xbcfcab8a	-0.030843515
43	0xbbbfcbf0	-0.0058531687
44	0x3c9ae17f	0.018906353
45	0xbd641a38	-0.055689067
46	0xbd09cd4c	-0.033643052
47	0xbd424158	-0.047425598
48	0xbd3312b6	-0.043719016
49	0xbc7f2324	-0.015572343
50	0xbcbde052	-0.023178253
51	0xbd3b64b0	-0.04575032
52	0xbd8e477a	-0.06947227
53	0xbc8c48ba	-0.017124522
54	0xbccab37d	-0.02474379
55	0x3d6e7823	0.05822004
56	0xbd3398f5	-0.043847043
57	0xbbebe4a2	-0.007198886
58	0xbd86408d	-0.06555281
59	0x3d0b3e0b	0.033994716
60	0xbd13456f	-0.03595489
61	0x3c70cdbd	0.014697489
62	0x3d98dce1	0.07464004
63	0x3d61bb3a	0.055110194
64	0x3d0b1f6f	0.033965524
65	0xbd800dd3	-0.06252637
66	0xbd3b2674	-0.04569097
67	0xbcbca0a5	-0.02302582
68	0xbca26c1d	-0.019826943
69	0x3d483fe9	0.048889074
70	0xbcfd48ad	-0.030918444
71	0x3d46501e	0.04841625
72	0xbd74200c	-0.059600875
73	0xbd6d3a17	-0.057916727
74	0x3d74b0bf	0.05973887
75	0xbd1e9436	-0.038715564
76	0xbc380171	-0.011230812
77	0x3d87ffd2	0.06640591
78	0xbd617967	-0.05504742
79	0x3d097aec	0.033564493
80	0x3cdc479d	0.026889617
81	0x3d812863	0.06306531
82	0xbc45c536	-0.0120709445
83	0xbcfaaa43	-0.030598765
84	0xbc549b78	-0.01297652
85	0x3d583b49	0.052790914
86	0xbd0c4d36	-0.03425332
87	0xbd14b883	-0.036308777
88	0x3d904917	0.07045191
89	0x3d159141	0.036515478
90	0xbd47c9f9	-0.0487766
91	0xbc5a6aa1	-0.013331086
92	0xbd796729	-0.060889397
93	0xbd88b10e	-0.066743955
94	0x3c6c7898	0.014433049
95	0x3d266a09	0.040628467
96	0xbd8d4cac	-0.068993896
97	0x3d68507a	0.056717373
98	0x3db0f949	0.08641297
99	0xbcf6e330	-0.030137628
100	0xbd3f9083	-0.046768676
101	0x3ba0ff97	0.004913281
102	0xbcdcc3f6	-0.02694891
103	0x3baf225b	0.0053446717
104	0x3d00fd39	0.031491492
105	0x3db5751e	0.08860229
106	0xbd3ec06a	-0.04657022
107	0xbd87a8d5	-0.06623999
108	0xbbd74435	-0.00656941
109	0x3cfc8cc6	0.030828845
110	0x3c32bea3	0.010909709
111	0x3d06aa85	0.032877464
112	0xbca4cd3c	-0.020117395
113	0x3d1988dd	0.03748404
114	0xbc8d1ae7	-0.017224742
115	0x3cc04231	0.023469063
116	0xbbb481bc	-0.0055086296
117	0x3d9629e1	0.073322065
118	0x3d17383e	0.03691887
119	0xbcb69f9a	-0.0222929
120	0xbcc66fc8	-0.024223223
121	0x3c69cffb	0.014270778
122	0xb8d130d9	-9.974995e-05
123	0xbc8be068	-0.017074779
124	0xbd441d86	-0.04787972
125	0xbb867f59	-0.0041045365
126	0xbd2b2656	-0.041784607
127	0x3d0d4af5	0.034495313

fc2.weight f4 [6, 128]
0	0xbd711a63	-0.058863055
1	0xbe15c16d	-0.14624567
2	0x3f37ce9c	0.71799636
3	0x3d834401	0.06409455
4	0xbf273ac2	-0.6532403
5	0x3bab77f3	0.005232805
6	0xbcd38147	-0.02581848
7	0x3ecd69f6	0.40119904
8	0x3b82fcfd	0.0039974437
9	0xbd61fa6e	-0.05517047
10	0xbd3e3736	-0.046439372
11	0x3d7c2272	0.061556287
12	0xbd305e0c	-0.04305844
13	0xbcb8f43d	-0.0225774
14	0x3ab63eec	0.001390425
15	0xbda07dd3	-0.07836499
16	0xbd4f03f6	-0.050540887
17	0x3d221b76	0.03957697
18	0x3b25418c	0.002521607
19	0xbe0e2554	-0.13881427
20	0xbd31a731	-0.043372337
21	0x3c5b8675	0.013398756
22	0xbd042de2	-0.03227032
23	0xbd9ff94b	-0.07811221
24	0x3d0dba99	0.03460178
25	0xbd244876	-0.040108167
26	0x3bc82e33	0.006109023
27	0x3daa81cb	0.08325537
28	0x3baf303d	0.0053463266
29	0x3e1210a7	0.14264165
30	0xbc14a492	-0.00907244
31	0xbe655b31	-0.22398068
32	0x3d10c11e	0.03534042
33	0xbad89466	-0.0016523718
34	0xbda4d430	-0.08048284
35	0x3d49b7dc	0.049247608
36	0xbd0206a3	-0.03174461
37	0xbd13408e	-0.035950236
38	0xbd9385f7	-0.07203286
39	0xbf14adef	-0.580779
40	0xbd883b40	-0.06651926
41	0x3d2b6236	0.041841708
42	0x3e8ddace	0.27705997
43	0xbd4403bf	-0.047855135
44	0xbd9c056a	-0.0761822
45	0x3d113b24	0.03545679
46	0xbca9d4d9	-0.020731376
47	0x3bc69572	0.0060602957
48	0xbc2a73be	-0.010403572
49	0x3b87807b	0.004135189
50	0x3d66fa98	0.05639133
51	0xbd366cac	-0.04453723
52	0xbedb611e	-0.42847532
53	0x3cb0b7c0	0.021571994
54	0xbc8e5d1e	-0.017378386
55	0x3c5532e6	0.013012623
56	0x3e879ad3	0.2648531
57	0x3d9d6879	0.07685942
58	0xbe6f7aca	-0.23386684
59	0xbe07632f	-0.1322143
60	0x3d9f439a	0.07776566
61	0xbba02273	-0.004886919
62	0xbd92c343	-0.071661495
63	0x3e74e363	0.23914866
64	0xbe45b407	-0.19306956
65	0x3da5ba3a	0.080921605
66	0x3c189903	0.009313825
67	0xbdaab39f	-0.08335041
68	0xbd57365c	-0.052542076
69	0xbd8cd8f1	-0.06877316
70	0xbd986890	-0.07441819
71	0xbe2a5b5a	-0.1663641
72	0xbbdcbe31	-0.00673654
73	0x3d8aaaec	0.06770882
74	0x3edd088b	0.4317058
75	0xbd2a4508	-0.04156974
76	0xbcc8b094	-0.024498262
77	0x3e1c7ab3	0.15281181
78	0xbc9dde76	-0.019271117
79	0x3c722fbe	0.01478189
80	0xbaa9b0ca	-0.0012946364
81	0xbe90619e	-0.28199476
82	0x3c81b659	0.01583402
83	0x3d8205b8	0.06348747
84	0xbca90122	-0.020630423
85	0x3d158c0b	0.03651051
86	0x3cccd4cc	0.025003813
87	0x3dbb7615	0.09153382
88	0xbd2cc8f0	-0.042183816
89	0x3da3b7b9	0.07994027
90	0x3cc6150d	0.02417996
91	0xbd4d9bd5	-0.05019744
92	0xbd66b27e	-0.056322567
93	0x3c8ef996	0.017452996
94	0xbe515b81	-0.20445062
95	0xbd6aebc1	-0.05735374
96	0xbca0871c	-0.019595675
97	0x3eaea159	0.34107473
98	0x3e8b26fd	0.27178183
99	0xbda11c3d	-0.07866714
100	0xbc0b4558	-0.00850042
101	0x3cde24e3	0.027117198
102	0x3ac9933a	0.001537896
103	0xbc30d49f	-0.01079288
104	0x3f385340	0.7200203
105	0x3f4c500a	0.7980963
106	0x3d86c230	0.06580007
107	0xbca1a18e	-0.019730356
108	0x3e0d156a	0.137777
109	0xbd2595bb	-0.040425997
110	0xbd9e959f	-0.07743382
111	0xbe50973b	-0.2037019
112	0x3cdbeffe	0.026847836
113	0x3cb9dd6f	0.022688596
114	0xbd98979e	-0.07450794
115	0x3d79c4c0	0.06097865
116	0x3daba8a0	0.08381772
117	0xbcc007ba	-0.023441184
118	0x3f138fa8	0.5764108
119	0x3b7f09d0	0.003891576
120	0xbc605721	-0.013692648
121	0xbf48ab1a	-0.7838608
122	0x3d636978	0.055520505
123	0xbf3ab795	-0.72936374
124	0x3d4bea4c	0.04978399
125	0xbd37e022	-0.044891484
126	0x3d81cf54	0.06338373
127	0xbc993659	-0.018702673
128	0xbd40b548	-0.047047883
129	0x3e0369ac	0.1283328
130	0xbc913608	-0.01772596
131	0xbd0cab6e	-0.034343176
132	0x3b1c0f92	0.0023812992
133	0xbd760666	-0.060064696
134	0xbd80b9de	-0.06285451
135	0x3dbd63bb	0.09247538
136	0x3ba22e45	0.0049493634
137	0x3cd44238	0.025910482
138	0xbbf6edb3	-0.00753566
139	0x3da01400	0.07816315
140	0x3bec786c	0.007216504
141	0x3cf1d489	0.02952029
142	0xbc9e0a24	-0.019291945
143	0x3d00b32e	0.03142088
144	0x3ee97f69	0.4560502
145	0x3ccf71db	0.025322845
146	0xbda178d3	-0.078843735
147	0xbde8555d	-0.11344407
148	0x3d6f9d7d	0.058499802
149	0x3d48fb0a	0.049067535
150	0xbd871726	-0.06596212
151	0x3eb46f01	0.3524094
152	0xbd33ea9c	-0.043924913
153	0xbcd9e363	-0.026597684
154	0x3c5ecbf8	0.013598435
155	0xbe3cc677	-0.18435083
156	0xbce7d725	-0.028300831
157	0x3e849c66	0.25900573
158	0xbcaac8e9	-0.020847755
159	0xbc6c812e	-0.014435096
160	0xbd3e7512	-0.046498366
161	0xbd4ad033	-0.04951496
162	0x3eb9950d	0.3624653
163	0xbd164361	-0.03668535
164	0x3d586f8e	0.05284076
165	0x3dc58459	0.09644384
166	0x3c067dee	0.008208735
167	0x3d21eb9b	0.03953133
168	0x3d95495c	0.07289383
169	0x3cbb162a	0.022837717
170	0xbd2e246a	-0.042515196
171	0x3db9cc77	0.09072202
172	0xbf148c10	-0.5802622
173	0x3d3d49a6	0.046212815
174	0xbd58bfb4	-0.052917197
175	0xbd06be9b	-0.03289662
176	0xbdd08a3e	-0.101826176
177	0x3c0cf2ef	0.008602842
178	0x3e3c4684	0.18386275
179	0xbbaed253	-0.005335131
180	0xbd0a5bfa	-0.033779122
181	0xbd9b4cee	-0.075830325
182	0xbc91b931	-0.017788501
183	0xbc2e5231	-0.010639713
184	0x3e190dd0	0.14946675
185	0x3c71a7f2	0.014749514
186	0x3e44fc18	0.19236791
187	0x3cd6c7a2	0.02621824
188	0xbce28dcb	-0.027655503
189	0xbcf317fb	-0.02967452
190	0x3f4409f4	0.7657769
191	0xbe71f810	-0.23629785
192	0xbe8519a1	-0.25996116
193	0xbd9f687b	-0.077836
194	0xbe184355	-0.14869435
195	0x3f229a08	0.63516283
196	0xbd812cf5	-0.06307403
197	0x3d25f189	0.04051355
198	0xbbeaa59a	-0.0071608545
199	0x3e8cbbeb	0.2748712
200	0x3b70f2b0	0.0036765747
201	0xbcec4ed2	-0.028846178
202	0xbe082ba4	-0.13297898
203	0x39cd4a81	0.00039156157
204	0xbb155b5f	-0.0022790057
205	0xbde0edc2	-0.10982849
206	0xb7eb2e13	-2.8035638e-05
207	0x3d94bdd4	0.07262769
208	0xbc9248ac	-0.017856918
209	0xbeb7f6f0	-0.35930586
210	0xbb50c2ef	-0.003185447
211	0x3d8e8aca	0.06960066
212	0xbf427f04	-0.7597506
213	0xbb85ed1b	-0.004087103
214	0x3e951a5f	0.29121682
215	0xbb3e1f47	-0.0029010342
216	0x3f4409fe	0.76577747
217	0xbdafe50a	-0.085886076
218	0x3c318fb6	0.010837486
219	0xbf2d1077	-0.6760325
220	0x3c949d59	0.018141435
221	0x3d2c7f6e	0.042113714
222	0xbe3579ff	-0.17722319
223	0xbe3e11db	-0.18561499
224	0xbbb54d15	-0.0055328705
225	0x3c55e87f	0.01305592
226	0x3d8caaac	0.068684906
227	0xbc20d77f	-0.009817003
228	0x3cf52d85	0.029928932
229	0x3d2d5ea2	0.042326577
230	0xbda33bcf	-0.07970392
231	0x3c2fe87e	0.010736583
232	0x3b922846	0.0044603674
233	0xbc49f045	-0.012325351
234	0xbd8f0b09	-0.06984527
235	0x3d9f1972	0.07768525
236	0xbd2048cc	-0.039131925
237	0x3d305714	0.043051794
238	0xbc8cb29d	-0.017175013
239	0xbd2adca7	-0.041714337
240	0x3ef3649f	0.47537705
241	0xbd499596	-0.049214922
242	0x3c80d952	0.015728626
243	0xbd88b5e7	-0.0667532
244	0xbd779f1f	-0.060454484
245	0x3af7462f	0.0018865521
246	0xbd6772b0	-0.05650586
247	0xbdd6e2ca	-0.10492475
248	0x3d941348	0.0723024
249	0x3cadafff	0.021202086
250	0xba7ec948	-0.00097193243
251	0xbca016ed	-0.019542182
252	0x3d822aed	0.06355844
253	0xbee36488	-0.44412637
254	0x3cb02821	0.02150351
255	0xbe9e8136	-0.30957955

fc2.bias f4 [6]
0	0x3da072c9	0.078343935
1	0xbdba98c7	-0.09111171
2	0x3e18a30c	0.14905947
3	0x3e772db6	0.24138531
4	0x3cbe5b2f	0.02323684
5	0x3e35301b	0.17694132
